…
I0401 23:16:09.029736  3112 net.cpp:313] The NetState phase (0) differed from the phase (1) specified by a rule in layer cifar
I0401 23:16:09.030320  3112 net.cpp:49] Initializing net from parameters: 
name: "all_cnn"
state {
  phase: TRAIN
}
layer {
  name: "cifar"
  type: "Data"
  top: "data"
  top: "label"
  include {
    phase: TRAIN
  }
  transform_param {
    mirror: true
    crop_size: 32
    mean_file: "/home/chenxi/dataset/cifar10_leveldb/paddedmean.binaryproto"
  }
  data_param {
    source: "/home/chenxi/dataset/cifar10_leveldb/cifar10_full_train_leveldb_padded"
    batch_size: 256
  }
}
layer {
  name: "drop_data"
  type: "Dropout"
  bottom: "data"
  top: "data"
  dropout_param {
    dropout_ratio: 0.2
  }
}
layer {
  name: "conv1_1"
  type: "Convolution"
  bottom: "data"
  top: "conv1_1"
  param {
    lr_mult: 1
    decay_mult: 1
  }
  convolution_param {
    num_output: 96
    bias_term: false
    pad: 1
    kernel_size: 3
    stride: 1
    weight_filler {
      type: "msra"
    }
  }
}
layer {
  name: "bn1_1"
  type: "BatchNorm"
  bottom: "conv1_1"
  top: "bn1_1"
  param {
    lr_mult: 0
  }
  param {
    lr_mult: 0
  }
  param {
    lr_mult: 0
  }
}
layer {
  name: "relu1_1"
  type: "ReLU"
  bottom: "bn1_1"
  top: "relu1_1"
}
layer {
  name: "conv1_2"
  type: "Convolution"
  bottom: "relu1_1"
  top: "conv1_2"
  param {
    lr_mult: 1
    decay_mult: 1
  }
  convolution_param {
    num_output: 96
    bias_term: false
    pad: 1
    kernel_size: 3
    stride: 1
    weight_filler {
      type: "msra"
    }
  }
}
layer {
  name: "bn1_2"
  type: "BatchNorm"
  bottom: "conv1_2"
  top: "bn1_2"
  param {
    lr_mult: 0
  }
  param {
    lr_mult: 0
  }
  param {
    lr_mult: 0
  }
}
layer {
  name: "relu1_2"
  type: "ReLU"
  bottom: "bn1_2"
  top: "relu1_2"
}
layer {
  name: "conv1_3"
  type: "Convolution"
  bottom: "relu1_2"
  top: "conv1_3"
  param {
    lr_mult: 1
    decay_mult: 1
  }
  convolution_param {
    num_output: 96
    bias_term: false
    pad: 1
    kernel_size: 3
    stride: 2
    weight_filler {
      type: "msra"
    }
  }
}
layer {
  name: "bn1_3"
  type: "BatchNorm"
  bottom: "conv1_3"
  top: "bn1_3"
  param {
    lr_mult: 0
  }
  param {
    lr_mult: 0
  }
  param {
    lr_mult: 0
  }
}
layer {
  name: "relu1_3"
  type: "ReLU"
  bottom: "bn1_3"
  top: "relu1_3"
}
layer {
  name: "drop1"
  type: "Dropout"
  bottom: "relu1_3"
  top: "drop1"
  dropout_param {
    dropout_ratio: 0.5
  }
}
layer {
  name: "conv2_1"
  type: "Convolution"
  bottom: "drop1"
  top: "conv2_1"
  param {
    lr_mult: 1
    decay_mult: 1
  }
  convolution_param {
    num_output: 192
    bias_term: false
    pad: 1
    kernel_size: 3
    stride: 1
    weight_filler {
      type: "msra"
    }
  }
}
layer {
  name: "bn2_1"
  type: "BatchNorm"
  bottom: "conv2_1"
  top: "bn2_1"
  param {
    lr_mult: 0
  }
  param {
    lr_mult: 0
  }
  param {
    lr_mult: 0
  }
}
layer {
  name: "relu2_1"
  type: "ReLU"
  bottom: "bn2_1"
  top: "relu2_1"
}
layer {
  name: "conv2_2"
  type: "Convolution"
  bottom: "relu2_1"
  top: "conv2_2"
  param {
    lr_mult: 1
    decay_mult: 1
  }
  convolution_param {
    num_output: 192
    bias_term: false
    pad: 1
    kernel_size: 3
    stride: 1
    weight_filler {
      type: "msra"
    }
  }
}
layer {
  name: "bn2_2"
  type: "BatchNorm"
  bottom: "conv2_2"
  top: "bn2_2"
  param {
    lr_mult: 0
  }
  param {
    lr_mult: 0
  }
  param {
    lr_mult: 0
  }
}
layer {
  name: "relu2_2"
  type: "ReLU"
  bottom: "bn2_2"
  top: "relu2_2"
}
layer {
  name: "conv2_3"
  type: "Convolution"
  bottom: "relu2_2"
  top: "conv2_3"
  param {
    lr_mult: 1
    decay_mult: 1
  }
  convolution_param {
    num_output: 192
    bias_term: false
    pad: 1
    kernel_size: 3
    stride: 2
    weight_filler {
      type: "msra"
    }
  }
}
layer {
  name: "bn2_3"
  type: "BatchNorm"
  bottom: "conv2_3"
  top: "bn2_3"
  param {
    lr_mult: 0
  }
  param {
    lr_mult: 0
  }
  param {
    lr_mult: 0
  }
}
layer {
  name: "relu2_3"
  type: "ReLU"
  bottom: "bn2_3"
  top: "relu2_3"
}
layer {
  name: "drop2"
  type: "Dropout"
  bottom: "relu2_3"
  top: "drop2"
  dropout_param {
    dropout_ratio: 0.5
  }
}
layer {
  name: "conv3_1"
  type: "Convolution"
  bottom: "drop2"
  top: "conv3_1"
  param {
    lr_mult: 1
    decay_mult: 1
  }
  convolution_param {
    num_output: 192
    bias_term: false
    kernel_size: 3
    stride: 1
    weight_filler {
      type: "msra"
    }
  }
}
layer {
  name: "bn3_1"
  type: "BatchNorm"
  bottom: "conv3_1"
  top: "bn3_1"
  param {
    lr_mult: 0
  }
  param {
    lr_mult: 0
  }
  param {
    lr_mult: 0
  }
}
layer {
  name: "relu3_1"
  type: "ReLU"
  bottom: "bn3_1"
  top: "relu3_1"
}
layer {
  name: "conv3_2"
  type: "Convolution"
  bottom: "relu3_1"
  top: "conv3_2"
  param {
    lr_mult: 1
    decay_mult: 1
  }
  convolution_param {
    num_output: 192
    bias_term: false
    kernel_size: 1
    weight_filler {
      type: "msra"
    }
  }
}
layer {
  name: "bn3_2"
  type: "BatchNorm"
  bottom: "conv3_2"
  top: "bn3_2"
  param {
    lr_mult: 0
  }
  param {
    lr_mult: 0
  }
  param {
    lr_mult: 0
  }
}
layer {
  name: "relu3_2"
  type: "ReLU"
  bottom: "bn3_2"
  top: "relu3_2"
}
layer {
  name: "conv3_3"
  type: "Convolution"
  bottom: "relu3_2"
  top: "conv3_3"
  param {
    lr_mult: 1
    decay_mult: 1
  }
  convolution_param {
    num_output: 10
    bias_term: false
    kernel_size: 1
    stride: 1
    weight_filler {
      type: "msra"
    }
  }
}
layer {
  name: "bn3_3"
  type: "BatchNorm"
  bottom: "conv3_3"
  top: "bn3_3"
  param {
    lr_mult: 0
  }
  param {
    lr_mult: 0
  }
  param {
    lr_mult: 0
  }
}
layer {
  name: "relu3_3"
  type: "ReLU"
  bottom: "bn3_3"
  top: "relu3_3"
}
layer {
  name: "pool3"
  type: "Pooling"
  bottom: "relu3_3"
  top: "pool3"
  pooling_param {
    pool: AVE
    kernel_size: 6
  }
}
layer {
  name: "accuracy"
  type: "Accuracy"
  bottom: "pool3"
  bottom: "label"
  top: "accuracy"
}
layer {
  name: "loss"
  type: "SoftmaxWithLoss"
  bottom: "pool3"
  bottom: "label"
  top: "loss"
}
I0401 23:16:09.030835  3112 layer_factory.hpp:77] Creating layer cifar
I0401 23:16:09.031510  3112 net.cpp:91] Creating Layer cifar
I0401 23:16:09.031628  3112 net.cpp:399] cifar -> data
I0401 23:16:09.031713  3112 net.cpp:399] cifar -> label
I0401 23:16:09.031771  3112 data_transformer.cpp:25] Loading mean file from: /home/chenxi/dataset/cifar10_leveldb/paddedmean.binaryproto
I0401 23:16:09.054322  3118 db_leveldb.cpp:18] Opened leveldb /home/chenxi/dataset/cifar10_leveldb/cifar10_full_train_leveldb_padded
I0401 23:16:09.069208  3112 data_layer.cpp:41] output data size: 256,3,32,32
I0401 23:16:09.081176  3112 net.cpp:141] Setting up cifar
I0401 23:16:09.081306  3112 net.cpp:148] Top shape: 256 3 32 32 (786432)
I0401 23:16:09.081338  3112 net.cpp:148] Top shape: 256 (256)
I0401 23:16:09.081353  3112 net.cpp:156] Memory required for data: 3146752
I0401 23:16:09.081382  3112 layer_factory.hpp:77] Creating layer label_cifar_1_split
I0401 23:16:09.081423  3112 net.cpp:91] Creating Layer label_cifar_1_split
I0401 23:16:09.081450  3112 net.cpp:425] label_cifar_1_split <- label
I0401 23:16:09.081499  3112 net.cpp:399] label_cifar_1_split -> label_cifar_1_split_0
I0401 23:16:09.081538  3112 net.cpp:399] label_cifar_1_split -> label_cifar_1_split_1
I0401 23:16:09.081842  3112 net.cpp:141] Setting up label_cifar_1_split
I0401 23:16:09.081878  3112 net.cpp:148] Top shape: 256 (256)
I0401 23:16:09.081897  3112 net.cpp:148] Top shape: 256 (256)
I0401 23:16:09.081909  3112 net.cpp:156] Memory required for data: 3148800
I0401 23:16:09.081925  3112 layer_factory.hpp:77] Creating layer drop_data
I0401 23:16:09.082026  3112 net.cpp:91] Creating Layer drop_data
I0401 23:16:09.082046  3112 net.cpp:425] drop_data <- data
I0401 23:16:09.082067  3112 net.cpp:386] drop_data -> data (in-place)
I0401 23:16:09.082159  3112 net.cpp:141] Setting up drop_data
I0401 23:16:09.082190  3112 net.cpp:148] Top shape: 256 3 32 32 (786432)
I0401 23:16:09.082207  3112 net.cpp:156] Memory required for data: 6294528
I0401 23:16:09.082222  3112 layer_factory.hpp:77] Creating layer conv1_1
I0401 23:16:09.082290  3112 net.cpp:91] Creating Layer conv1_1
I0401 23:16:09.082312  3112 net.cpp:425] conv1_1 <- data
I0401 23:16:09.082340  3112 net.cpp:399] conv1_1 -> conv1_1
I0401 23:16:09.085824  3119 blocking_queue.cpp:50] Waiting for data
I0401 23:16:09.370033  3112 net.cpp:141] Setting up conv1_1
I0401 23:16:09.370108  3112 net.cpp:148] Top shape: 256 96 32 32 (25165824)
I0401 23:16:09.370126  3112 net.cpp:156] Memory required for data: 106957824
I0401 23:16:09.370177  3112 layer_factory.hpp:77] Creating layer bn1_1
I0401 23:16:09.370220  3112 net.cpp:91] Creating Layer bn1_1
I0401 23:16:09.370244  3112 net.cpp:425] bn1_1 <- conv1_1
I0401 23:16:09.370268  3112 net.cpp:399] bn1_1 -> bn1_1
I0401 23:16:09.371928  3112 net.cpp:141] Setting up bn1_1
I0401 23:16:09.371969  3112 net.cpp:148] Top shape: 256 96 32 32 (25165824)
I0401 23:16:09.371985  3112 net.cpp:156] Memory required for data: 207621120
I0401 23:16:09.372026  3112 layer_factory.hpp:77] Creating layer relu1_1
I0401 23:16:09.372056  3112 net.cpp:91] Creating Layer relu1_1
I0401 23:16:09.372077  3112 net.cpp:425] relu1_1 <- bn1_1
I0401 23:16:09.372098  3112 net.cpp:399] relu1_1 -> relu1_1
I0401 23:16:09.372721  3112 net.cpp:141] Setting up relu1_1
I0401 23:16:09.372761  3112 net.cpp:148] Top shape: 256 96 32 32 (25165824)
I0401 23:16:09.372777  3112 net.cpp:156] Memory required for data: 308284416
I0401 23:16:09.372793  3112 layer_factory.hpp:77] Creating layer conv1_2
I0401 23:16:09.372828  3112 net.cpp:91] Creating Layer conv1_2
I0401 23:16:09.372843  3112 net.cpp:425] conv1_2 <- relu1_1
I0401 23:16:09.372871  3112 net.cpp:399] conv1_2 -> conv1_2
I0401 23:16:09.382283  3112 net.cpp:141] Setting up conv1_2
I0401 23:16:09.382338  3112 net.cpp:148] Top shape: 256 96 32 32 (25165824)
I0401 23:16:09.382354  3112 net.cpp:156] Memory required for data: 408947712
I0401 23:16:09.382383  3112 layer_factory.hpp:77] Creating layer bn1_2
I0401 23:16:09.382407  3112 net.cpp:91] Creating Layer bn1_2
I0401 23:16:09.382428  3112 net.cpp:425] bn1_2 <- conv1_2
I0401 23:16:09.382457  3112 net.cpp:399] bn1_2 -> bn1_2
I0401 23:16:09.382979  3112 net.cpp:141] Setting up bn1_2
I0401 23:16:09.383014  3112 net.cpp:148] Top shape: 256 96 32 32 (25165824)
I0401 23:16:09.383028  3112 net.cpp:156] Memory required for data: 509611008
I0401 23:16:09.383057  3112 layer_factory.hpp:77] Creating layer relu1_2
I0401 23:16:09.383090  3112 net.cpp:91] Creating Layer relu1_2
I0401 23:16:09.383110  3112 net.cpp:425] relu1_2 <- bn1_2
I0401 23:16:09.383129  3112 net.cpp:399] relu1_2 -> relu1_2
I0401 23:16:09.383606  3112 net.cpp:141] Setting up relu1_2
I0401 23:16:09.383641  3112 net.cpp:148] Top shape: 256 96 32 32 (25165824)
I0401 23:16:09.383656  3112 net.cpp:156] Memory required for data: 610274304
I0401 23:16:09.383671  3112 layer_factory.hpp:77] Creating layer conv1_3
I0401 23:16:09.383710  3112 net.cpp:91] Creating Layer conv1_3
I0401 23:16:09.383731  3112 net.cpp:425] conv1_3 <- relu1_2
I0401 23:16:09.383754  3112 net.cpp:399] conv1_3 -> conv1_3
I0401 23:16:09.391777  3112 net.cpp:141] Setting up conv1_3
I0401 23:16:09.391821  3112 net.cpp:148] Top shape: 256 96 16 16 (6291456)
I0401 23:16:09.391836  3112 net.cpp:156] Memory required for data: 635440128
I0401 23:16:09.391865  3112 layer_factory.hpp:77] Creating layer bn1_3
I0401 23:16:09.391898  3112 net.cpp:91] Creating Layer bn1_3
I0401 23:16:09.391921  3112 net.cpp:425] bn1_3 <- conv1_3
I0401 23:16:09.391942  3112 net.cpp:399] bn1_3 -> bn1_3
I0401 23:16:09.392418  3112 net.cpp:141] Setting up bn1_3
I0401 23:16:09.392452  3112 net.cpp:148] Top shape: 256 96 16 16 (6291456)
I0401 23:16:09.392508  3112 net.cpp:156] Memory required for data: 660605952
I0401 23:16:09.392539  3112 layer_factory.hpp:77] Creating layer relu1_3
I0401 23:16:09.392566  3112 net.cpp:91] Creating Layer relu1_3
I0401 23:16:09.392581  3112 net.cpp:425] relu1_3 <- bn1_3
I0401 23:16:09.392611  3112 net.cpp:399] relu1_3 -> relu1_3
I0401 23:16:09.393308  3112 net.cpp:141] Setting up relu1_3
I0401 23:16:09.393349  3112 net.cpp:148] Top shape: 256 96 16 16 (6291456)
I0401 23:16:09.393364  3112 net.cpp:156] Memory required for data: 685771776
I0401 23:16:09.393380  3112 layer_factory.hpp:77] Creating layer drop1
I0401 23:16:09.393412  3112 net.cpp:91] Creating Layer drop1
I0401 23:16:09.393426  3112 net.cpp:425] drop1 <- relu1_3
I0401 23:16:09.393461  3112 net.cpp:399] drop1 -> drop1
I0401 23:16:09.393563  3112 net.cpp:141] Setting up drop1
I0401 23:16:09.393594  3112 net.cpp:148] Top shape: 256 96 16 16 (6291456)
I0401 23:16:09.393612  3112 net.cpp:156] Memory required for data: 710937600
I0401 23:16:09.393627  3112 layer_factory.hpp:77] Creating layer conv2_1
I0401 23:16:09.393659  3112 net.cpp:91] Creating Layer conv2_1
I0401 23:16:09.393677  3112 net.cpp:425] conv2_1 <- drop1
I0401 23:16:09.393705  3112 net.cpp:399] conv2_1 -> conv2_1
I0401 23:16:09.404543  3112 net.cpp:141] Setting up conv2_1
I0401 23:16:09.404564  3112 net.cpp:148] Top shape: 256 192 16 16 (12582912)
I0401 23:16:09.404584  3112 net.cpp:156] Memory required for data: 761269248
I0401 23:16:09.404594  3112 layer_factory.hpp:77] Creating layer bn2_1
I0401 23:16:09.404606  3112 net.cpp:91] Creating Layer bn2_1
I0401 23:16:09.404613  3112 net.cpp:425] bn2_1 <- conv2_1
I0401 23:16:09.404626  3112 net.cpp:399] bn2_1 -> bn2_1
I0401 23:16:09.404881  3112 net.cpp:141] Setting up bn2_1
I0401 23:16:09.404898  3112 net.cpp:148] Top shape: 256 192 16 16 (12582912)
I0401 23:16:09.404907  3112 net.cpp:156] Memory required for data: 811600896
I0401 23:16:09.404922  3112 layer_factory.hpp:77] Creating layer relu2_1
I0401 23:16:09.404937  3112 net.cpp:91] Creating Layer relu2_1
I0401 23:16:09.404945  3112 net.cpp:425] relu2_1 <- bn2_1
I0401 23:16:09.404955  3112 net.cpp:399] relu2_1 -> relu2_1
I0401 23:16:09.405316  3112 net.cpp:141] Setting up relu2_1
I0401 23:16:09.405349  3112 net.cpp:148] Top shape: 256 192 16 16 (12582912)
I0401 23:16:09.405357  3112 net.cpp:156] Memory required for data: 861932544
I0401 23:16:09.405366  3112 layer_factory.hpp:77] Creating layer conv2_2
I0401 23:16:09.405388  3112 net.cpp:91] Creating Layer conv2_2
I0401 23:16:09.405400  3112 net.cpp:425] conv2_2 <- relu2_1
I0401 23:16:09.405411  3112 net.cpp:399] conv2_2 -> conv2_2
I0401 23:16:09.418294  3112 net.cpp:141] Setting up conv2_2
I0401 23:16:09.418334  3112 net.cpp:148] Top shape: 256 192 16 16 (12582912)
I0401 23:16:09.418342  3112 net.cpp:156] Memory required for data: 912264192
I0401 23:16:09.418361  3112 layer_factory.hpp:77] Creating layer bn2_2
I0401 23:16:09.418376  3112 net.cpp:91] Creating Layer bn2_2
I0401 23:16:09.418387  3112 net.cpp:425] bn2_2 <- conv2_2
I0401 23:16:09.418398  3112 net.cpp:399] bn2_2 -> bn2_2
I0401 23:16:09.418639  3112 net.cpp:141] Setting up bn2_2
I0401 23:16:09.418656  3112 net.cpp:148] Top shape: 256 192 16 16 (12582912)
I0401 23:16:09.418664  3112 net.cpp:156] Memory required for data: 962595840
I0401 23:16:09.418678  3112 layer_factory.hpp:77] Creating layer relu2_2
I0401 23:16:09.418689  3112 net.cpp:91] Creating Layer relu2_2
I0401 23:16:09.418697  3112 net.cpp:425] relu2_2 <- bn2_2
I0401 23:16:09.418710  3112 net.cpp:399] relu2_2 -> relu2_2
I0401 23:16:09.418958  3112 net.cpp:141] Setting up relu2_2
I0401 23:16:09.418977  3112 net.cpp:148] Top shape: 256 192 16 16 (12582912)
I0401 23:16:09.418985  3112 net.cpp:156] Memory required for data: 1012927488
I0401 23:16:09.418993  3112 layer_factory.hpp:77] Creating layer conv2_3
I0401 23:16:09.419011  3112 net.cpp:91] Creating Layer conv2_3
I0401 23:16:09.419019  3112 net.cpp:425] conv2_3 <- relu2_2
I0401 23:16:09.419034  3112 net.cpp:399] conv2_3 -> conv2_3
I0401 23:16:09.431895  3112 net.cpp:141] Setting up conv2_3
I0401 23:16:09.431915  3112 net.cpp:148] Top shape: 256 192 8 8 (3145728)
I0401 23:16:09.431936  3112 net.cpp:156] Memory required for data: 1025510400
I0401 23:16:09.431946  3112 layer_factory.hpp:77] Creating layer bn2_3
I0401 23:16:09.431960  3112 net.cpp:91] Creating Layer bn2_3
I0401 23:16:09.431968  3112 net.cpp:425] bn2_3 <- conv2_3
I0401 23:16:09.431978  3112 net.cpp:399] bn2_3 -> bn2_3
I0401 23:16:09.432242  3112 net.cpp:141] Setting up bn2_3
I0401 23:16:09.432258  3112 net.cpp:148] Top shape: 256 192 8 8 (3145728)
I0401 23:16:09.432265  3112 net.cpp:156] Memory required for data: 1038093312
I0401 23:16:09.432281  3112 layer_factory.hpp:77] Creating layer relu2_3
I0401 23:16:09.432292  3112 net.cpp:91] Creating Layer relu2_3
I0401 23:16:09.432302  3112 net.cpp:425] relu2_3 <- bn2_3
I0401 23:16:09.432315  3112 net.cpp:399] relu2_3 -> relu2_3
I0401 23:16:09.432690  3112 net.cpp:141] Setting up relu2_3
I0401 23:16:09.432725  3112 net.cpp:148] Top shape: 256 192 8 8 (3145728)
I0401 23:16:09.432734  3112 net.cpp:156] Memory required for data: 1050676224
I0401 23:16:09.432741  3112 layer_factory.hpp:77] Creating layer drop2
I0401 23:16:09.432754  3112 net.cpp:91] Creating Layer drop2
I0401 23:16:09.432761  3112 net.cpp:425] drop2 <- relu2_3
I0401 23:16:09.432778  3112 net.cpp:399] drop2 -> drop2
I0401 23:16:09.432832  3112 net.cpp:141] Setting up drop2
I0401 23:16:09.432847  3112 net.cpp:148] Top shape: 256 192 8 8 (3145728)
I0401 23:16:09.432857  3112 net.cpp:156] Memory required for data: 1063259136
I0401 23:16:09.432864  3112 layer_factory.hpp:77] Creating layer conv3_1
I0401 23:16:09.432884  3112 net.cpp:91] Creating Layer conv3_1
I0401 23:16:09.432898  3112 net.cpp:425] conv3_1 <- drop2
I0401 23:16:09.432911  3112 net.cpp:399] conv3_1 -> conv3_1
I0401 23:16:09.445612  3112 net.cpp:141] Setting up conv3_1
I0401 23:16:09.445647  3112 net.cpp:148] Top shape: 256 192 6 6 (1769472)
I0401 23:16:09.445655  3112 net.cpp:156] Memory required for data: 1070337024
I0401 23:16:09.445667  3112 layer_factory.hpp:77] Creating layer bn3_1
I0401 23:16:09.445677  3112 net.cpp:91] Creating Layer bn3_1
I0401 23:16:09.445685  3112 net.cpp:425] bn3_1 <- conv3_1
I0401 23:16:09.445710  3112 net.cpp:399] bn3_1 -> bn3_1
I0401 23:16:09.445983  3112 net.cpp:141] Setting up bn3_1
I0401 23:16:09.445999  3112 net.cpp:148] Top shape: 256 192 6 6 (1769472)
I0401 23:16:09.446008  3112 net.cpp:156] Memory required for data: 1077414912
I0401 23:16:09.446022  3112 layer_factory.hpp:77] Creating layer relu3_1
I0401 23:16:09.446033  3112 net.cpp:91] Creating Layer relu3_1
I0401 23:16:09.446040  3112 net.cpp:425] relu3_1 <- bn3_1
I0401 23:16:09.446050  3112 net.cpp:399] relu3_1 -> relu3_1
I0401 23:16:09.446512  3112 net.cpp:141] Setting up relu3_1
I0401 23:16:09.446532  3112 net.cpp:148] Top shape: 256 192 6 6 (1769472)
I0401 23:16:09.446539  3112 net.cpp:156] Memory required for data: 1084492800
I0401 23:16:09.446547  3112 layer_factory.hpp:77] Creating layer conv3_2
I0401 23:16:09.446571  3112 net.cpp:91] Creating Layer conv3_2
I0401 23:16:09.446583  3112 net.cpp:425] conv3_2 <- relu3_1
I0401 23:16:09.446593  3112 net.cpp:399] conv3_2 -> conv3_2
I0401 23:16:09.449755  3112 net.cpp:141] Setting up conv3_2
I0401 23:16:09.449791  3112 net.cpp:148] Top shape: 256 192 6 6 (1769472)
I0401 23:16:09.449800  3112 net.cpp:156] Memory required for data: 1091570688
I0401 23:16:09.449811  3112 layer_factory.hpp:77] Creating layer bn3_2
I0401 23:16:09.449826  3112 net.cpp:91] Creating Layer bn3_2
I0401 23:16:09.449834  3112 net.cpp:425] bn3_2 <- conv3_2
I0401 23:16:09.449849  3112 net.cpp:399] bn3_2 -> bn3_2
I0401 23:16:09.450119  3112 net.cpp:141] Setting up bn3_2
I0401 23:16:09.450135  3112 net.cpp:148] Top shape: 256 192 6 6 (1769472)
I0401 23:16:09.450145  3112 net.cpp:156] Memory required for data: 1098648576
I0401 23:16:09.450158  3112 layer_factory.hpp:77] Creating layer relu3_2
I0401 23:16:09.450170  3112 net.cpp:91] Creating Layer relu3_2
I0401 23:16:09.450176  3112 net.cpp:425] relu3_2 <- bn3_2
I0401 23:16:09.450212  3112 net.cpp:399] relu3_2 -> relu3_2
I0401 23:16:09.450469  3112 net.cpp:141] Setting up relu3_2
I0401 23:16:09.450491  3112 net.cpp:148] Top shape: 256 192 6 6 (1769472)
I0401 23:16:09.450502  3112 net.cpp:156] Memory required for data: 1105726464
I0401 23:16:09.450510  3112 layer_factory.hpp:77] Creating layer conv3_3
I0401 23:16:09.450527  3112 net.cpp:91] Creating Layer conv3_3
I0401 23:16:09.450541  3112 net.cpp:425] conv3_3 <- relu3_2
I0401 23:16:09.450552  3112 net.cpp:399] conv3_3 -> conv3_3
I0401 23:16:09.451766  3112 net.cpp:141] Setting up conv3_3
I0401 23:16:09.451786  3112 net.cpp:148] Top shape: 256 10 6 6 (92160)
I0401 23:16:09.451793  3112 net.cpp:156] Memory required for data: 1106095104
I0401 23:16:09.451814  3112 layer_factory.hpp:77] Creating layer bn3_3
I0401 23:16:09.451853  3112 net.cpp:91] Creating Layer bn3_3
I0401 23:16:09.451861  3112 net.cpp:425] bn3_3 <- conv3_3
I0401 23:16:09.451872  3112 net.cpp:399] bn3_3 -> bn3_3
I0401 23:16:09.452137  3112 net.cpp:141] Setting up bn3_3
I0401 23:16:09.452154  3112 net.cpp:148] Top shape: 256 10 6 6 (92160)
I0401 23:16:09.452162  3112 net.cpp:156] Memory required for data: 1106463744
I0401 23:16:09.452178  3112 layer_factory.hpp:77] Creating layer relu3_3
I0401 23:16:09.452188  3112 net.cpp:91] Creating Layer relu3_3
I0401 23:16:09.452195  3112 net.cpp:425] relu3_3 <- bn3_3
I0401 23:16:09.452208  3112 net.cpp:399] relu3_3 -> relu3_3
I0401 23:16:09.452587  3112 net.cpp:141] Setting up relu3_3
I0401 23:16:09.452620  3112 net.cpp:148] Top shape: 256 10 6 6 (92160)
I0401 23:16:09.452627  3112 net.cpp:156] Memory required for data: 1106832384
I0401 23:16:09.452636  3112 layer_factory.hpp:77] Creating layer pool3
I0401 23:16:09.452662  3112 net.cpp:91] Creating Layer pool3
I0401 23:16:09.452673  3112 net.cpp:425] pool3 <- relu3_3
I0401 23:16:09.452683  3112 net.cpp:399] pool3 -> pool3
I0401 23:16:09.452991  3112 net.cpp:141] Setting up pool3
I0401 23:16:09.453007  3112 net.cpp:148] Top shape: 256 10 1 1 (2560)
I0401 23:16:09.453014  3112 net.cpp:156] Memory required for data: 1106842624
I0401 23:16:09.453022  3112 layer_factory.hpp:77] Creating layer pool3_pool3_0_split
I0401 23:16:09.453033  3112 net.cpp:91] Creating Layer pool3_pool3_0_split
I0401 23:16:09.453040  3112 net.cpp:425] pool3_pool3_0_split <- pool3
I0401 23:16:09.453049  3112 net.cpp:399] pool3_pool3_0_split -> pool3_pool3_0_split_0
I0401 23:16:09.453081  3112 net.cpp:399] pool3_pool3_0_split -> pool3_pool3_0_split_1
I0401 23:16:09.453145  3112 net.cpp:141] Setting up pool3_pool3_0_split
I0401 23:16:09.453161  3112 net.cpp:148] Top shape: 256 10 1 1 (2560)
I0401 23:16:09.453172  3112 net.cpp:148] Top shape: 256 10 1 1 (2560)
I0401 23:16:09.453179  3112 net.cpp:156] Memory required for data: 1106863104
I0401 23:16:09.453186  3112 layer_factory.hpp:77] Creating layer accuracy
I0401 23:16:09.453203  3112 net.cpp:91] Creating Layer accuracy
I0401 23:16:09.453212  3112 net.cpp:425] accuracy <- pool3_pool3_0_split_0
I0401 23:16:09.453220  3112 net.cpp:425] accuracy <- label_cifar_1_split_0
I0401 23:16:09.453233  3112 net.cpp:399] accuracy -> accuracy
…
I0401 23:16:09.455299  3112 solver.cpp:181] Creating test net (#0) specified by net file: net.prototxt
I0401 23:16:09.455370  3112 net.cpp:313] The NetState phase (1) differed from the phase (0) specified by a rule in layer cifar
I0401 23:16:09.455647  3112 net.cpp:49] Initializing net from parameters: 
name: "all_cnn"
state {
  phase: TEST
}
layer {
  name: "cifar"
  type: "Data"
  top: "data"
  top: "label"
  include {
    phase: TEST
  }
  transform_param {
    mean_file: "/home/chenxi/dataset/cifar10_leveldb/mean.binaryproto"
  }
  data_param {
    source: "/home/chenxi/dataset/cifar10_leveldb/cifar10_test_leveldb"
    batch_size: 200
  }
}
layer {
  name: "drop_data"
  type: "Dropout"
  bottom: "data"
  top: "data"
  dropout_param {
    dropout_ratio: 0.2
  }
}
layer {
  name: "conv1_1"
  type: "Convolution"
  bottom: "data"
  top: "conv1_1"
  param {
    lr_mult: 1
    decay_mult: 1
  }
  convolution_param {
    num_output: 96
    bias_term: false
    pad: 1
    kernel_size: 3
    stride: 1
    weight_filler {
      type: "msra"
    }
  }
}
layer {
  name: "bn1_1"
  type: "BatchNorm"
  bottom: "conv1_1"
  top: "bn1_1"
  param {
    lr_mult: 0
  }
  param {
    lr_mult: 0
  }
  param {
    lr_mult: 0
  }
}
layer {
  name: "relu1_1"
  type: "ReLU"
  bottom: "bn1_1"
  top: "relu1_1"
}
layer {
  name: "conv1_2"
  type: "Convolution"
  bottom: "relu1_1"
  top: "conv1_2"
  param {
    lr_mult: 1
    decay_mult: 1
  }
  convolution_param {
    num_output: 96
    bias_term: false
    pad: 1
    kernel_size: 3
    stride: 1
    weight_filler {
      type: "msra"
    }
  }
}
layer {
  name: "bn1_2"
  type: "BatchNorm"
  bottom: "conv1_2"
  top: "bn1_2"
  param {
    lr_mult: 0
  }
  param {
    lr_mult: 0
  }
  param {
    lr_mult: 0
  }
}
layer {
  name: "relu1_2"
  type: "ReLU"
  bottom: "bn1_2"
  top: "relu1_2"
}
layer {
  name: "conv1_3"
  type: "Convolution"
  bottom: "relu1_2"
  top: "conv1_3"
  param {
    lr_mult: 1
    decay_mult: 1
  }
  convolution_param {
    num_output: 96
    bias_term: false
    pad: 1
    kernel_size: 3
    stride: 2
    weight_filler {
      type: "msra"
    }
  }
}
layer {
  name: "bn1_3"
  type: "BatchNorm"
  bottom: "conv1_3"
  top: "bn1_3"
  param {
    lr_mult: 0
  }
  param {
    lr_mult: 0
  }
  param {
    lr_mult: 0
  }
}
layer {
  name: "relu1_3"
  type: "ReLU"
  bottom: "bn1_3"
  top: "relu1_3"
}
layer {
  name: "drop1"
  type: "Dropout"
  bottom: "relu1_3"
  top: "drop1"
  dropout_param {
    dropout_ratio: 0.5
  }
}
layer {
  name: "conv2_1"
  type: "Convolution"
  bottom: "drop1"
  top: "conv2_1"
  param {
    lr_mult: 1
    decay_mult: 1
  }
  convolution_param {
    num_output: 192
    bias_term: false
    pad: 1
    kernel_size: 3
    stride: 1
    weight_filler {
      type: "msra"
    }
  }
}
layer {
  name: "bn2_1"
  type: "BatchNorm"
  bottom: "conv2_1"
  top: "bn2_1"
  param {
    lr_mult: 0
  }
  param {
    lr_mult: 0
  }
  param {
    lr_mult: 0
  }
}
layer {
  name: "relu2_1"
  type: "ReLU"
  bottom: "bn2_1"
  top: "relu2_1"
}
layer {
  name: "conv2_2"
  type: "Convolution"
  bottom: "relu2_1"
  top: "conv2_2"
  param {
    lr_mult: 1
    decay_mult: 1
  }
  convolution_param {
    num_output: 192
    bias_term: false
    pad: 1
    kernel_size: 3
    stride: 1
    weight_filler {
      type: "msra"
    }
  }
}
layer {
  name: "bn2_2"
  type: "BatchNorm"
  bottom: "conv2_2"
  top: "bn2_2"
  param {
    lr_mult: 0
  }
  param {
    lr_mult: 0
  }
  param {
    lr_mult: 0
  }
}
layer {
  name: "relu2_2"
  type: "ReLU"
  bottom: "bn2_2"
  top: "relu2_2"
}
layer {
  name: "conv2_3"
  type: "Convolution"
  bottom: "relu2_2"
  top: "conv2_3"
  param {
    lr_mult: 1
    decay_mult: 1
  }
  convolution_param {
    num_output: 192
    bias_term: false
    pad: 1
    kernel_size: 3
    stride: 2
    weight_filler {
      type: "msra"
    }
  }
}
layer {
  name: "bn2_3"
  type: "BatchNorm"
  bottom: "conv2_3"
  top: "bn2_3"
  param {
    lr_mult: 0
  }
  param {
    lr_mult: 0
  }
  param {
    lr_mult: 0
  }
}
layer {
  name: "relu2_3"
  type: "ReLU"
  bottom: "bn2_3"
  top: "relu2_3"
}
layer {
  name: "drop2"
  type: "Dropout"
  bottom: "relu2_3"
  top: "drop2"
  dropout_param {
    dropout_ratio: 0.5
  }
}
layer {
  name: "conv3_1"
  type: "Convolution"
  bottom: "drop2"
  top: "conv3_1"
  param {
    lr_mult: 1
    decay_mult: 1
  }
  convolution_param {
    num_output: 192
    bias_term: false
    kernel_size: 3
    stride: 1
    weight_filler {
      type: "msra"
    }
  }
}
layer {
  name: "bn3_1"
  type: "BatchNorm"
  bottom: "conv3_1"
  top: "bn3_1"
  param {
    lr_mult: 0
  }
  param {
    lr_mult: 0
  }
  param {
    lr_mult: 0
  }
}
layer {
  name: "relu3_1"
  type: "ReLU"
  bottom: "bn3_1"
  top: "relu3_1"
}
layer {
  name: "conv3_2"
  type: "Convolution"
  bottom: "relu3_1"
  top: "conv3_2"
  param {
    lr_mult: 1
    decay_mult: 1
  }
  convolution_param {
    num_output: 192
    bias_term: false
    kernel_size: 1
    weight_filler {
      type: "msra"
    }
  }
}
layer {
  name: "bn3_2"
  type: "BatchNorm"
  bottom: "conv3_2"
  top: "bn3_2"
  param {
    lr_mult: 0
  }
  param {
    lr_mult: 0
  }
  param {
    lr_mult: 0
  }
}
layer {
  name: "relu3_2"
  type: "ReLU"
  bottom: "bn3_2"
  top: "relu3_2"
}
layer {
  name: "conv3_3"
  type: "Convolution"
  bottom: "relu3_2"
  top: "conv3_3"
  param {
    lr_mult: 1
    decay_mult: 1
  }
  convolution_param {
    num_output: 10
    bias_term: false
    kernel_size: 1
    stride: 1
    weight_filler {
      type: "msra"
    }
  }
}
layer {
  name: "bn3_3"
  type: "BatchNorm"
  bottom: "conv3_3"
  top: "bn3_3"
  param {
    lr_mult: 0
  }
  param {
    lr_mult: 0
  }
  param {
    lr_mult: 0
  }
}
layer {
  name: "relu3_3"
  type: "ReLU"
  bottom: "bn3_3"
  top: "relu3_3"
}
layer {
  name: "pool3"
  type: "Pooling"
  bottom: "relu3_3"
  top: "pool3"
  pooling_param {
    pool: AVE
    kernel_size: 6
  }
}
layer {
  name: "accuracy"
  type: "Accuracy"
  bottom: "pool3"
  bottom: "label"
  top: "accuracy"
}
layer {
  name: "loss"
  type: "SoftmaxWithLoss"
  bottom: "pool3"
  bottom: "label"
  top: "loss"
}
I0401 23:16:09.455858  3112 layer_factory.hpp:77] Creating layer cifar
I0401 23:16:09.456117  3112 net.cpp:91] Creating Layer cifar
I0401 23:16:09.456132  3112 net.cpp:399] cifar -> data
I0401 23:16:09.456146  3112 net.cpp:399] cifar -> label
I0401 23:16:09.456163  3112 data_transformer.cpp:25] Loading mean file from: /home/chenxi/dataset/cifar10_leveldb/mean.binaryproto
I0401 23:16:09.458850  3120 db_leveldb.cpp:18] Opened leveldb /home/chenxi/dataset/cifar10_leveldb/cifar10_test_leveldb
I0401 23:16:09.459172  3112 data_layer.cpp:41] output data size: 200,3,32,32
I0401 23:16:09.465317  3112 net.cpp:141] Setting up cifar
I0401 23:16:09.465363  3112 net.cpp:148] Top shape: 200 3 32 32 (614400)
I0401 23:16:09.465373  3112 net.cpp:148] Top shape: 200 (200)
I0401 23:16:09.465380  3112 net.cpp:156] Memory required for data: 2458400
I0401 23:16:09.465390  3112 layer_factory.hpp:77] Creating layer label_cifar_1_split
I0401 23:16:09.465407  3112 net.cpp:91] Creating Layer label_cifar_1_split
I0401 23:16:09.465416  3112 net.cpp:425] label_cifar_1_split <- label
I0401 23:16:09.465445  3112 net.cpp:399] label_cifar_1_split -> label_cifar_1_split_0
I0401 23:16:09.465459  3112 net.cpp:399] label_cifar_1_split -> label_cifar_1_split_1
I0401 23:16:09.465575  3112 net.cpp:141] Setting up label_cifar_1_split
I0401 23:16:09.465597  3112 net.cpp:148] Top shape: 200 (200)
I0401 23:16:09.465608  3112 net.cpp:148] Top shape: 200 (200)
I0401 23:16:09.465617  3112 net.cpp:156] Memory required for data: 2460000
I0401 23:16:09.465625  3112 layer_factory.hpp:77] Creating layer drop_data
I0401 23:16:09.465638  3112 net.cpp:91] Creating Layer drop_data
I0401 23:16:09.465647  3112 net.cpp:425] drop_data <- data
I0401 23:16:09.465656  3112 net.cpp:386] drop_data -> data (in-place)
I0401 23:16:09.465701  3112 net.cpp:141] Setting up drop_data
I0401 23:16:09.465715  3112 net.cpp:148] Top shape: 200 3 32 32 (614400)
I0401 23:16:09.465724  3112 net.cpp:156] Memory required for data: 4917600
I0401 23:16:09.465731  3112 layer_factory.hpp:77] Creating layer conv1_1
I0401 23:16:09.465751  3112 net.cpp:91] Creating Layer conv1_1
I0401 23:16:09.465760  3112 net.cpp:425] conv1_1 <- data
I0401 23:16:09.465775  3112 net.cpp:399] conv1_1 -> conv1_1
I0401 23:16:09.467486  3112 net.cpp:141] Setting up conv1_1
I0401 23:16:09.467510  3112 net.cpp:148] Top shape: 200 96 32 32 (19660800)
I0401 23:16:09.467522  3112 net.cpp:156] Memory required for data: 83560800
I0401 23:16:09.467537  3112 layer_factory.hpp:77] Creating layer bn1_1
I0401 23:16:09.467556  3112 net.cpp:91] Creating Layer bn1_1
I0401 23:16:09.467566  3112 net.cpp:425] bn1_1 <- conv1_1
I0401 23:16:09.467583  3112 net.cpp:399] bn1_1 -> bn1_1
I0401 23:16:09.467865  3112 net.cpp:141] Setting up bn1_1
I0401 23:16:09.467885  3112 net.cpp:148] Top shape: 200 96 32 32 (19660800)
I0401 23:16:09.467892  3112 net.cpp:156] Memory required for data: 162204000
I0401 23:16:09.467916  3112 layer_factory.hpp:77] Creating layer relu1_1
I0401 23:16:09.467929  3112 net.cpp:91] Creating Layer relu1_1
I0401 23:16:09.467939  3112 net.cpp:425] relu1_1 <- bn1_1
I0401 23:16:09.467953  3112 net.cpp:399] relu1_1 -> relu1_1
I0401 23:16:09.468221  3112 net.cpp:141] Setting up relu1_1
I0401 23:16:09.468258  3112 net.cpp:148] Top shape: 200 96 32 32 (19660800)
I0401 23:16:09.468268  3112 net.cpp:156] Memory required for data: 240847200
I0401 23:16:09.468278  3112 layer_factory.hpp:77] Creating layer conv1_2
I0401 23:16:09.468298  3112 net.cpp:91] Creating Layer conv1_2
I0401 23:16:09.468307  3112 net.cpp:425] conv1_2 <- relu1_1
I0401 23:16:09.468317  3112 net.cpp:399] conv1_2 -> conv1_2
I0401 23:16:09.472553  3112 net.cpp:141] Setting up conv1_2
I0401 23:16:09.472578  3112 net.cpp:148] Top shape: 200 96 32 32 (19660800)
I0401 23:16:09.472590  3112 net.cpp:156] Memory required for data: 319490400
I0401 23:16:09.472605  3112 layer_factory.hpp:77] Creating layer bn1_2
I0401 23:16:09.472630  3112 net.cpp:91] Creating Layer bn1_2
I0401 23:16:09.472638  3112 net.cpp:425] bn1_2 <- conv1_2
I0401 23:16:09.472652  3112 net.cpp:399] bn1_2 -> bn1_2
I0401 23:16:09.472935  3112 net.cpp:141] Setting up bn1_2
I0401 23:16:09.472952  3112 net.cpp:148] Top shape: 200 96 32 32 (19660800)
I0401 23:16:09.472960  3112 net.cpp:156] Memory required for data: 398133600
I0401 23:16:09.472986  3112 layer_factory.hpp:77] Creating layer relu1_2
I0401 23:16:09.473007  3112 net.cpp:91] Creating Layer relu1_2
I0401 23:16:09.473017  3112 net.cpp:425] relu1_2 <- bn1_2
I0401 23:16:09.473028  3112 net.cpp:399] relu1_2 -> relu1_2
I0401 23:16:09.473289  3112 net.cpp:141] Setting up relu1_2
I0401 23:16:09.473307  3112 net.cpp:148] Top shape: 200 96 32 32 (19660800)
I0401 23:16:09.473318  3112 net.cpp:156] Memory required for data: 476776800
I0401 23:16:09.473336  3112 layer_factory.hpp:77] Creating layer conv1_3
I0401 23:16:09.473356  3112 net.cpp:91] Creating Layer conv1_3
I0401 23:16:09.473367  3112 net.cpp:425] conv1_3 <- relu1_2
I0401 23:16:09.473384  3112 net.cpp:399] conv1_3 -> conv1_3
I0401 23:16:09.477669  3112 net.cpp:141] Setting up conv1_3
I0401 23:16:09.477694  3112 net.cpp:148] Top shape: 200 96 16 16 (4915200)
I0401 23:16:09.477704  3112 net.cpp:156] Memory required for data: 496437600
I0401 23:16:09.477727  3112 layer_factory.hpp:77] Creating layer bn1_3
I0401 23:16:09.477744  3112 net.cpp:91] Creating Layer bn1_3
I0401 23:16:09.477752  3112 net.cpp:425] bn1_3 <- conv1_3
I0401 23:16:09.477762  3112 net.cpp:399] bn1_3 -> bn1_3
I0401 23:16:09.478042  3112 net.cpp:141] Setting up bn1_3
I0401 23:16:09.478058  3112 net.cpp:148] Top shape: 200 96 16 16 (4915200)
I0401 23:16:09.478068  3112 net.cpp:156] Memory required for data: 516098400
I0401 23:16:09.478082  3112 layer_factory.hpp:77] Creating layer relu1_3
I0401 23:16:09.478094  3112 net.cpp:91] Creating Layer relu1_3
I0401 23:16:09.478104  3112 net.cpp:425] relu1_3 <- bn1_3
I0401 23:16:09.478117  3112 net.cpp:399] relu1_3 -> relu1_3
I0401 23:16:09.478492  3112 net.cpp:141] Setting up relu1_3
I0401 23:16:09.478514  3112 net.cpp:148] Top shape: 200 96 16 16 (4915200)
I0401 23:16:09.478529  3112 net.cpp:156] Memory required for data: 535759200
I0401 23:16:09.478538  3112 layer_factory.hpp:77] Creating layer drop1
I0401 23:16:09.478550  3112 net.cpp:91] Creating Layer drop1
I0401 23:16:09.478557  3112 net.cpp:425] drop1 <- relu1_3
I0401 23:16:09.478571  3112 net.cpp:399] drop1 -> drop1
I0401 23:16:09.478631  3112 net.cpp:141] Setting up drop1
I0401 23:16:09.478646  3112 net.cpp:148] Top shape: 200 96 16 16 (4915200)
I0401 23:16:09.478657  3112 net.cpp:156] Memory required for data: 555420000
I0401 23:16:09.478665  3112 layer_factory.hpp:77] Creating layer conv2_1
I0401 23:16:09.478689  3112 net.cpp:91] Creating Layer conv2_1
I0401 23:16:09.478698  3112 net.cpp:425] conv2_1 <- drop1
I0401 23:16:09.478713  3112 net.cpp:399] conv2_1 -> conv2_1
I0401 23:16:09.486722  3112 net.cpp:141] Setting up conv2_1
I0401 23:16:09.486765  3112 net.cpp:148] Top shape: 200 192 16 16 (9830400)
I0401 23:16:09.486773  3112 net.cpp:156] Memory required for data: 594741600
I0401 23:16:09.486788  3112 layer_factory.hpp:77] Creating layer bn2_1
I0401 23:16:09.486807  3112 net.cpp:91] Creating Layer bn2_1
I0401 23:16:09.486827  3112 net.cpp:425] bn2_1 <- conv2_1
I0401 23:16:09.486840  3112 net.cpp:399] bn2_1 -> bn2_1
I0401 23:16:09.487161  3112 net.cpp:141] Setting up bn2_1
I0401 23:16:09.487179  3112 net.cpp:148] Top shape: 200 192 16 16 (9830400)
I0401 23:16:09.487186  3112 net.cpp:156] Memory required for data: 634063200
I0401 23:16:09.487200  3112 layer_factory.hpp:77] Creating layer relu2_1
I0401 23:16:09.487211  3112 net.cpp:91] Creating Layer relu2_1
I0401 23:16:09.487220  3112 net.cpp:425] relu2_1 <- bn2_1
I0401 23:16:09.487229  3112 net.cpp:399] relu2_1 -> relu2_1
I0401 23:16:09.487507  3112 net.cpp:141] Setting up relu2_1
I0401 23:16:09.487525  3112 net.cpp:148] Top shape: 200 192 16 16 (9830400)
I0401 23:16:09.487532  3112 net.cpp:156] Memory required for data: 673384800
I0401 23:16:09.487540  3112 layer_factory.hpp:77] Creating layer conv2_2
I0401 23:16:09.487568  3112 net.cpp:91] Creating Layer conv2_2
I0401 23:16:09.487577  3112 net.cpp:425] conv2_2 <- relu2_1
I0401 23:16:09.487591  3112 net.cpp:399] conv2_2 -> conv2_2
I0401 23:16:09.501303  3112 net.cpp:141] Setting up conv2_2
I0401 23:16:09.501360  3112 net.cpp:148] Top shape: 200 192 16 16 (9830400)
I0401 23:16:09.501369  3112 net.cpp:156] Memory required for data: 712706400
I0401 23:16:09.501394  3112 layer_factory.hpp:77] Creating layer bn2_2
I0401 23:16:09.501420  3112 net.cpp:91] Creating Layer bn2_2
I0401 23:16:09.501428  3112 net.cpp:425] bn2_2 <- conv2_2
I0401 23:16:09.501443  3112 net.cpp:399] bn2_2 -> bn2_2
I0401 23:16:09.501730  3112 net.cpp:141] Setting up bn2_2
I0401 23:16:09.501747  3112 net.cpp:148] Top shape: 200 192 16 16 (9830400)
I0401 23:16:09.501754  3112 net.cpp:156] Memory required for data: 752028000
I0401 23:16:09.501768  3112 layer_factory.hpp:77] Creating layer relu2_2
I0401 23:16:09.501780  3112 net.cpp:91] Creating Layer relu2_2
I0401 23:16:09.501787  3112 net.cpp:425] relu2_2 <- bn2_2
I0401 23:16:09.501797  3112 net.cpp:399] relu2_2 -> relu2_2
I0401 23:16:09.502094  3112 net.cpp:141] Setting up relu2_2
I0401 23:16:09.502125  3112 net.cpp:148] Top shape: 200 192 16 16 (9830400)
I0401 23:16:09.502132  3112 net.cpp:156] Memory required for data: 791349600
I0401 23:16:09.502140  3112 layer_factory.hpp:77] Creating layer conv2_3
I0401 23:16:09.502159  3112 net.cpp:91] Creating Layer conv2_3
I0401 23:16:09.502179  3112 net.cpp:425] conv2_3 <- relu2_2
I0401 23:16:09.502194  3112 net.cpp:399] conv2_3 -> conv2_3
I0401 23:16:09.515450  3112 net.cpp:141] Setting up conv2_3
I0401 23:16:09.515485  3112 net.cpp:148] Top shape: 200 192 8 8 (2457600)
I0401 23:16:09.515492  3112 net.cpp:156] Memory required for data: 801180000
I0401 23:16:09.515503  3112 layer_factory.hpp:77] Creating layer bn2_3
I0401 23:16:09.515518  3112 net.cpp:91] Creating Layer bn2_3
I0401 23:16:09.515527  3112 net.cpp:425] bn2_3 <- conv2_3
I0401 23:16:09.515537  3112 net.cpp:399] bn2_3 -> bn2_3
I0401 23:16:09.515815  3112 net.cpp:141] Setting up bn2_3
I0401 23:16:09.515831  3112 net.cpp:148] Top shape: 200 192 8 8 (2457600)
I0401 23:16:09.515838  3112 net.cpp:156] Memory required for data: 811010400
I0401 23:16:09.515851  3112 layer_factory.hpp:77] Creating layer relu2_3
I0401 23:16:09.515866  3112 net.cpp:91] Creating Layer relu2_3
I0401 23:16:09.515873  3112 net.cpp:425] relu2_3 <- bn2_3
I0401 23:16:09.515883  3112 net.cpp:399] relu2_3 -> relu2_3
I0401 23:16:09.516343  3112 net.cpp:141] Setting up relu2_3
I0401 23:16:09.516376  3112 net.cpp:148] Top shape: 200 192 8 8 (2457600)
I0401 23:16:09.516384  3112 net.cpp:156] Memory required for data: 820840800
I0401 23:16:09.516397  3112 layer_factory.hpp:77] Creating layer drop2
I0401 23:16:09.516413  3112 net.cpp:91] Creating Layer drop2
I0401 23:16:09.516422  3112 net.cpp:425] drop2 <- relu2_3
I0401 23:16:09.516432  3112 net.cpp:399] drop2 -> drop2
I0401 23:16:09.516494  3112 net.cpp:141] Setting up drop2
I0401 23:16:09.516510  3112 net.cpp:148] Top shape: 200 192 8 8 (2457600)
I0401 23:16:09.516516  3112 net.cpp:156] Memory required for data: 830671200
I0401 23:16:09.516523  3112 layer_factory.hpp:77] Creating layer conv3_1
I0401 23:16:09.516541  3112 net.cpp:91] Creating Layer conv3_1
I0401 23:16:09.516548  3112 net.cpp:425] conv3_1 <- drop2
I0401 23:16:09.516587  3112 net.cpp:399] conv3_1 -> conv3_1
I0401 23:16:09.530058  3112 net.cpp:141] Setting up conv3_1
I0401 23:16:09.530097  3112 net.cpp:148] Top shape: 200 192 6 6 (1382400)
I0401 23:16:09.530107  3112 net.cpp:156] Memory required for data: 836200800
I0401 23:16:09.530117  3112 layer_factory.hpp:77] Creating layer bn3_1
I0401 23:16:09.530133  3112 net.cpp:91] Creating Layer bn3_1
I0401 23:16:09.530140  3112 net.cpp:425] bn3_1 <- conv3_1
I0401 23:16:09.530153  3112 net.cpp:399] bn3_1 -> bn3_1
I0401 23:16:09.530439  3112 net.cpp:141] Setting up bn3_1
I0401 23:16:09.530457  3112 net.cpp:148] Top shape: 200 192 6 6 (1382400)
I0401 23:16:09.530463  3112 net.cpp:156] Memory required for data: 841730400
I0401 23:16:09.530477  3112 layer_factory.hpp:77] Creating layer relu3_1
I0401 23:16:09.530488  3112 net.cpp:91] Creating Layer relu3_1
I0401 23:16:09.530494  3112 net.cpp:425] relu3_1 <- bn3_1
I0401 23:16:09.530508  3112 net.cpp:399] relu3_1 -> relu3_1
I0401 23:16:09.530760  3112 net.cpp:141] Setting up relu3_1
I0401 23:16:09.530777  3112 net.cpp:148] Top shape: 200 192 6 6 (1382400)
I0401 23:16:09.530784  3112 net.cpp:156] Memory required for data: 847260000
I0401 23:16:09.530792  3112 layer_factory.hpp:77] Creating layer conv3_2
I0401 23:16:09.530812  3112 net.cpp:91] Creating Layer conv3_2
I0401 23:16:09.530823  3112 net.cpp:425] conv3_2 <- relu3_1
I0401 23:16:09.530834  3112 net.cpp:399] conv3_2 -> conv3_2
I0401 23:16:09.533321  3112 net.cpp:141] Setting up conv3_2
I0401 23:16:09.533354  3112 net.cpp:148] Top shape: 200 192 6 6 (1382400)
I0401 23:16:09.533363  3112 net.cpp:156] Memory required for data: 852789600
I0401 23:16:09.533373  3112 layer_factory.hpp:77] Creating layer bn3_2
I0401 23:16:09.533388  3112 net.cpp:91] Creating Layer bn3_2
I0401 23:16:09.533396  3112 net.cpp:425] bn3_2 <- conv3_2
I0401 23:16:09.533411  3112 net.cpp:399] bn3_2 -> bn3_2
I0401 23:16:09.533695  3112 net.cpp:141] Setting up bn3_2
I0401 23:16:09.533725  3112 net.cpp:148] Top shape: 200 192 6 6 (1382400)
I0401 23:16:09.533732  3112 net.cpp:156] Memory required for data: 858319200
I0401 23:16:09.533746  3112 layer_factory.hpp:77] Creating layer relu3_2
I0401 23:16:09.533756  3112 net.cpp:91] Creating Layer relu3_2
I0401 23:16:09.533762  3112 net.cpp:425] relu3_2 <- bn3_2
I0401 23:16:09.533784  3112 net.cpp:399] relu3_2 -> relu3_2
I0401 23:16:09.534042  3112 net.cpp:141] Setting up relu3_2
I0401 23:16:09.534060  3112 net.cpp:148] Top shape: 200 192 6 6 (1382400)
I0401 23:16:09.534067  3112 net.cpp:156] Memory required for data: 863848800
I0401 23:16:09.534081  3112 layer_factory.hpp:77] Creating layer conv3_3
I0401 23:16:09.534099  3112 net.cpp:91] Creating Layer conv3_3
I0401 23:16:09.534111  3112 net.cpp:425] conv3_3 <- relu3_2
I0401 23:16:09.534126  3112 net.cpp:399] conv3_3 -> conv3_3
I0401 23:16:09.535352  3112 net.cpp:141] Setting up conv3_3
I0401 23:16:09.535387  3112 net.cpp:148] Top shape: 200 10 6 6 (72000)
I0401 23:16:09.535395  3112 net.cpp:156] Memory required for data: 864136800
I0401 23:16:09.535416  3112 layer_factory.hpp:77] Creating layer bn3_3
I0401 23:16:09.535429  3112 net.cpp:91] Creating Layer bn3_3
I0401 23:16:09.535436  3112 net.cpp:425] bn3_3 <- conv3_3
I0401 23:16:09.535449  3112 net.cpp:399] bn3_3 -> bn3_3
I0401 23:16:09.535747  3112 net.cpp:141] Setting up bn3_3
I0401 23:16:09.535775  3112 net.cpp:148] Top shape: 200 10 6 6 (72000)
I0401 23:16:09.535783  3112 net.cpp:156] Memory required for data: 864424800
I0401 23:16:09.535799  3112 layer_factory.hpp:77] Creating layer relu3_3
I0401 23:16:09.535809  3112 net.cpp:91] Creating Layer relu3_3
I0401 23:16:09.535830  3112 net.cpp:425] relu3_3 <- bn3_3
I0401 23:16:09.535840  3112 net.cpp:399] relu3_3 -> relu3_3
I0401 23:16:09.536224  3112 net.cpp:141] Setting up relu3_3
I0401 23:16:09.536257  3112 net.cpp:148] Top shape: 200 10 6 6 (72000)
I0401 23:16:09.536265  3112 net.cpp:156] Memory required for data: 864712800
I0401 23:16:09.536273  3112 layer_factory.hpp:77] Creating layer pool3
I0401 23:16:09.536298  3112 net.cpp:91] Creating Layer pool3
I0401 23:16:09.536324  3112 net.cpp:425] pool3 <- relu3_3
I0401 23:16:09.536336  3112 net.cpp:399] pool3 -> pool3
I0401 23:16:09.536597  3112 net.cpp:141] Setting up pool3
I0401 23:16:09.536615  3112 net.cpp:148] Top shape: 200 10 1 1 (2000)
I0401 23:16:09.536623  3112 net.cpp:156] Memory required for data: 864720800
I0401 23:16:09.536630  3112 layer_factory.hpp:77] Creating layer pool3_pool3_0_split
I0401 23:16:09.536641  3112 net.cpp:91] Creating Layer pool3_pool3_0_split
I0401 23:16:09.536648  3112 net.cpp:425] pool3_pool3_0_split <- pool3
I0401 23:16:09.536661  3112 net.cpp:399] pool3_pool3_0_split -> pool3_pool3_0_split_0
I0401 23:16:09.536674  3112 net.cpp:399] pool3_pool3_0_split -> pool3_pool3_0_split_1
I0401 23:16:09.536728  3112 net.cpp:141] Setting up pool3_pool3_0_split
I0401 23:16:09.536746  3112 net.cpp:148] Top shape: 200 10 1 1 (2000)
I0401 23:16:09.536759  3112 net.cpp:148] Top shape: 200 10 1 1 (2000)
I0401 23:16:09.536767  3112 net.cpp:156] Memory required for data: 864736800
I0401 23:16:09.536773  3112 layer_factory.hpp:77] Creating layer accuracy
I0401 23:16:09.536784  3112 net.cpp:91] Creating Layer accuracy
I0401 23:16:09.536792  3112 net.cpp:425] accuracy <- pool3_pool3_0_split_0
I0401 23:16:09.536799  3112 net.cpp:425] accuracy <- label_cifar_1_split_0
I0401 23:16:09.536808  3112 net.cpp:399] accuracy -> accuracy
…
